checkpoint_actor-final.pth (torch_old, 169524 bytes, 6 tensors)

fc1.weight f4 [256, 33]
000000 29 f4 97 bd 45 71 55 bd dd 26 31 3d 95 43 90 3c
       -0.07419617 -0.052109975 0.043249954 0.01761035
000010 c5 c3 a0 bc 1d 74 e7 3d 62 82 17 3e 73 4e 4f 3d
       -0.0196246 0.11301444 0.14795831 0.050611924
000020 56 0e b1 3d 87 ee c0 3d 95 cf 84 bc 4e c7 55 bb
       0.086453125 0.094204955 -0.016212264 -0.0032620016
000030 3d 30 00 be 17 0d a4 bd 52 1e 4d bc d5 bd 2e bc
       -0.12518401 -0.08010309 -0.012519436 -0.010665377
000040 22 c3 9b 3c 0d c8 48 3a 09 4a 7f bd 71 02 5c bd
       0.019013945 0.00076592044 -0.062326465 -0.053713266
000050 fd e5 43 bd 85 01 7e 3d a9 d8 7c 3d fb c9 9f bd
       -0.047826756 0.062013168 0.06173006 -0.078021966
000060 be 3e 5c bc cd e9 c8 bd 86 48 ad bd ce e9 45 3d
       -0.013442693 -0.09810219 -0.084610984 0.048318677
000070 82 66 0a be 70 2a 01 3d 07 92 78 bc 74 00 e9 3c
       -0.13515666 0.031534612 -0.015171534 0.028442599
000080 9c be c5 be 8e 7b a5 bd f6 49 5b bd 93 a0 6b bd
       -0.38621986 -0.08080207 -0.05353733 -0.057526182
000090 ea c6 75 3d 1c 5e ae bd 2f d2 62 3d 92 07 1f bd
       0.060004152 -0.08514044 0.055376228 -0.03882558
0000a0 a4 08 de 3c ee 2e f3 bd 92 81 f7 bc 0a c6 d8 3c
       0.02710373 -0.118741855 -0.030213151 0.02646162
0000b0 06 27 04 3d 2d 92 cd 3c 54 2b 6e 3d 5d 9b 41 bc
       0.03226378 0.025094116 0.05814679 -0.011816827
0000c0 6b 30 da 3d 5a ae 73 3d 4e 32 8f ba 8c 0b 3a be
       0.10653766 0.059492446 -0.0010925026 -0.18168467
0000d0 8a 62 21 3c 8a 6e 0e be 54 0c 79 3e b5 21 0a be
       0.009850154 -0.13909355 0.24321109 -0.1348942
0000e0 28 02 6b 3d 61 f8 ab bd 52 76 35 3d dc d2 b8 3d
       0.057375103 -0.08396984 0.044302292 0.09024593
0000f0 1a 5c 85 3d 4d 59 41 3d ca 5b 71 bd da 05 5b bd
       0.065117076 0.047204304 -0.058925427 -0.053472377
000100 1a 4e 54 3d 93 09 eb bd cd a6 9f 3d 60 29 e5 3d
       0.051832296 -0.114764355 0.077954866 0.11189532
000110 0d be a0 3b e5 6e f2 bc 10 f8 93 3d e8 51 d3 3d
       0.0049054683 -0.029593894 0.072250485 0.10318357
000120 c6 30 25 3c 0d 4f c2 3a 19 1b 5d 3d ba a1 2e 3e
       0.010082429 0.0014824584 0.05398092 0.17053881
000130 74 9c ab 3c 07 d6 79 bc ec fd 06 3b 24 5f 86 bd
       0.020948626 -0.015248782 0.0020598127 -0.065611154
000140 92 b8 4a 3e 5a d9 c4 3d c2 06 3e 3d 1d 92 a0 3d
       0.1979697 0.09611769 0.046393164 0.07840369
000150 88 26 19 bd 4c df 9d bb 70 4c 05 be 9c b1 73 3d
       -0.037390262 -0.004817879 -0.1301744 0.059495553
000160 eb e0 eb 3d 0e 4c 0a be 5c 8e 82 3d 68 a9 e5 bd
       0.11517509 -0.13505575 0.06374809 -0.11213952
000170 3b 6b f9 bd 74 ba 36 bd b7 49 e8 3c 28 41 06 3d
       -0.12178656 -0.04461141 0.028355462 0.03277698
000180 c4 c6 90 bc 7c a1 12 bd 96 05 9d 3d 1f 7a 76 3d
       -0.017672904 -0.035798535 0.07667081 0.060175058
000190 4d e5 60 3d 61 ad a8 3d ee aa 00 3d 8a c6 55 3c
       0.05490618 0.082361944 0.03141301 0.013047824
0001a0 87 4f 79 bd aa 66 c5 bc 4f d7 5f 3d 58 7c 85 bd
       -0.06086686 -0.024096806 0.054648694 -0.06517857
0001b0 87 9f 82 bd 44 bb a7 bd 72 53 04 3d 0d 2f 77 bd
       -0.06378084 -0.08190015 0.032306142 -0.060347605
0001c0 74 be 09 bd 04 e0 46 3d f3 a2 02 be 42 fd ab bb
       -0.033628896 0.04855348 -0.12757473 -0.0052486965
0001d0 1e 09 8c 3c 98 f4 ed bc 18 13 c6 bc aa 6d 88 3d
       0.017094191 -0.029047295 -0.024179026 0.06661542
0001e0 46 eb 50 3d d1 6b ff 3b 61 6f 36 3d e7 2d c4 3c
       0.051005624 0.007794835 0.044539813 0.02394767
0001f0 c3 ec b0 bc 67 1c ef 3d 1a 66 15 be 95 56 ab 3d
       -0.021597272 0.11675339 -0.1458973 0.083661236
000200 8c 51 63 bd 54 b2 33 3e 38 cd 34 bd bf 50 d6 bd
       -0.05549769 0.17548496 -0.044141024 -0.1046462
000210 7e 1b 82 bd b2 cf e3 bc a4 40 01 3e 1d 0b a0 3d
       -0.063529 -0.027808998 0.12622315 0.0781462
000220 72 85 99 bc b4 80 e8 bc 09 6e cb 3d 53 7b 0e 3e
       -0.01874039 -0.028381683 0.09933097 0.13914232
000230 2a 2a 51 3d cb 20 05 3d 13 e0 b8 3c 28 16 81 3c
       0.0510656 0.032501977 0.022567784 0.015757635
000240 20 f9 e1 3c 66 56 14 bd e9 50 30 3e 08 49 99 3d
       0.027584612 -0.03621521 0.17218365 0.07484633
000250 3a 15 90 3d f5 1f d5 3b cb a3 5c 3d 61 ab 9b 3c
       0.07035299 0.0065040537 0.053867143 0.019002618
000260 14 9d 27 3d 36 9c 4a 3d 97 80 bb bd 76 ff 66 3d
       0.040921286 0.04946538 -0.09155386 0.05639597
000270 f4 8f 52 3c e9 15 fb bb b4 9f 65 3e 8f 33 fc bd
       0.012851704 -0.007662524 0.22424203 -0.123145215
000280 08 50 5b 3c b8 4f 37 3c de 05 0a 3e 28 a8 74 3d
       0.01338578 0.01118844 0.134788 0.05973068
000290 2e a9 65 3e 51 fe 23 be 4a 09 47 3e 45 2a fb bd
       0.22427818 -0.16014983 0.19437137 -0.12263922
0002a0 7e cc 00 bd 18 ed 94 bd e6 c4 d7 3c 76 06 46 bd
       -0.03144502 -0.072717845 0.026339006 -0.048346005
0002b0 4a 7b 76 3d 40 67 c6 bd 91 f1 85 bc 5a fd 9b b8
       0.06017617 -0.09687662 -0.01635054 -7.438166e-05
0002c0 d6 94 46 3e e7 c8 55 3c ec ed 81 bc ac ec ef bd
       0.19392714 0.013048387 -0.01586052 -0.117150635
0002d0 8e 10 10 3e a6 9f 62 bd 48 94 dc 3c e4 ad c6 3b
       0.14068815 -0.055328034 0.026926175 0.00606321
0002e0 75 59 79 bd 21 2c 93 3d a0 ff ce 3d 5b 66 8c bd
       -0.06087633 0.07186151 0.1010735 -0.0685546
0002f0 dd ad b8 3c a7 53 ce bd a0 9e 96 bc 7f be a9 3d
       0.022543842 -0.10074549 -0.018386185 0.08288287
000300 9a a7 c5 3d 0c 9d 47 bc e8 8c bf 3c 28 71 d8 bd
       0.09651108 -0.012183439 0.023382619 -0.10568458
000310 b4 4c 82 3c 13 f9 90 bd fb ed 89 3b eb 77 8e 3d
       0.015905716 -0.07078757 0.0042092777 0.06956466
000320 b1 c4 27 3e fa 7e 86 3b 97 56 14 bd cc 64 b6 3d
       0.16383626 0.0041044923 -0.03621539 0.08905944
000330 e3 b9 21 bd 7d 03 a5 3d b0 39 96 be b7 94 23 bb
       -0.039483916 0.08057306 -0.29340887 -0.0024960467
000340 cf 69 8d bd 2e 0b 71 3e b6 9e 99 3c 90 1f a8 bd
       -0.06904947 0.23539421 0.018752437 -0.08209145
000350 22 db 95 bd a7 e5 f7 bd 2c ab d4 3b 61 18 c4 bd
       -0.07317187 -0.121043496 0.006490132 -0.095749624
000360 f7 26 97 bd 52 b2 76 3c cd 5b 80 bd 97 4c 31 3c
       -0.07380479 0.015057163 -0.062675096 0.010821483
000370 62 95 9b 3d 05 24 90 bd 0a 3a 32 be 05 22 d7 bc
       0.07596852 -0.0703812 -0.17404953 -0.026261339
000380 57 a0 6a 3d 30 48 2b bd 46 c8 c3 3d 90 ba 22 3d
       0.05728182 -0.04181689 0.095596835 0.0397287
000390 69 19 74 bc 38 80 46 3c 13 26 87 bd cd db f6 3a
       -0.014898636 0.012115531 -0.06599059 0.0018833816
0003a0 09 e6 81 bd d0 dd 70 3d d8 00 c2 3d b9 fc 5d bd
       -0.06342704 0.058805287 0.09472817 -0.054196093
0003b0 ff 13 51 3d 99 ed 44 bd 3b 1a 92 bd 39 0b 23 3e
       0.05104446 -0.048078153 -0.07133909 0.1592225
0003c0 5a 6d 39 3d 62 27 ec 3d 94 9f 25 be 23 08 ce bb
       0.0452703 0.11530949 -0.16174155 -0.006287591
0003d0 38 23 69 3d 13 77 e1 bb 86 6a ce 3d 5b 2e 5e bd
       0.056918353 -0.00688065 0.100789115 -0.054243427
0003e0 f0 20 19 3d 22 9c 19 3d 89 b5 86 bd 39 67 fb 3d
       0.037384927 0.037502415 -0.06577594 0.122755475
0003f0 84 57 86 bd 3f 98 0a be 95 93 a6 3d 98 cd 06 3d
       -0.06559661 -0.1353464 0.08133618 0.032910913

fc1.bias f4 [256]
000000 8c 51 91 3d 88 15 f8 3d 57 62 13 bc a9 83 91 3e
       0.07095632 0.12113482 -0.008995614 0.2842076
000010 e3 99 a4 3d 0e ba 88 be 61 3d f8 bd 6c 7b 01 3d
       0.08037164 -0.26704448 -0.12121082 0.031611845
000020 d2 80 a1 3d 27 9b 5b 3e 11 4c b1 3b 48 70 6b 3c
       0.07885899 0.21445905 0.005410679 0.014370032
000030 c4 70 0a 3e 91 ae 8e 3d 62 bb d7 3d 6d 54 a8 3c
       0.13519579 0.0696689 0.10533787 0.02054807
000040 95 04 0b bd a6 23 19 be 82 2c 8b 3e 8f f2 9c 3c
       -0.033939917 -0.14955005 0.27182394 0.01915863
000050 3f ab 11 bc ef 23 d6 3d 98 ab 81 bd fd dc 00 3d
       -0.008890926 0.104560725 -0.06331557 0.03146075
000060 ac 72 8a 3c b2 ed d4 bd 44 d0 69 3d e7 00 55 bd
       0.016900383 -0.10396899 0.057083383 -0.052002814
000070 68 d6 9b 3d 46 a6 2f 3e aa ff dc 3d 77 d8 75 bd
       0.07609254 0.17153272 0.107909516 -0.06002089
000080 f1 4d b9 bd 95 a0 a3 3c 8f 6a e6 3d fa b9 ed 3c
       -0.09048069 0.019974032 0.11250793 0.029019345
000090 d8 1d 1d 3e 6e 4d f6 3d 28 a4 ee bd 67 db 05 3e
       0.15343416 0.12026487 -0.11652404 0.13071977
0000a0 94 68 88 bd 2d 2a 75 bd fc 14 39 3e 43 ce cf 3b
       -0.06660572 -0.059854675 0.18074411 0.006341727
0000b0 8f 09 85 3c 23 05 c9 bd 6b 2e e0 3d 3d 2d d3 3d
       0.01623991 -0.09815433 0.109463535 0.10311363
0000c0 98 56 52 3e da ef b2 3b f2 88 73 be 80 43 db 3d
       0.20540845 0.0054607214 -0.23782709 0.10706234
0000d0 bf a7 e9 bd c0 9c 63 3d 06 2e 81 bc 32 5e 83 3e
       -0.11408948 0.05556941 -0.015769016 0.25657803
0000e0 56 b6 9e bc e9 d1 02 be b5 91 6c 3d bf 4f aa bb
       -0.019374054 -0.12775387 0.057756145 -0.0051974948
0000f0 01 25 1c be 49 cb 67 3e 27 ce fb 3b 11 72 4d bc
       -0.15248491 0.22636141 0.0076844874 -0.012539403
000100 68 58 ae bd 1a 2b f2 bc ca 2a 05 3d 40 ee 17 3c
       -0.08512956 -0.029561568 0.03251151 0.009273112
000110 26 43 cb 3d fb 31 32 3d 25 52 16 3e c3 6d 03 3e
       0.09924917 0.043504696 0.14679773 0.1283484
000120 43 86 44 be 62 35 ce bd 9d df d8 3d 7e 7d f1 3d
       -0.19191842 -0.10068776 0.10589526 0.11791514
000130 2f 9c 61 3e 0f 35 c3 bd bb 05 2c 3e e9 d8 d0 bd
       0.22032236 -0.095316045 0.16799061 -0.10197622
000140 f3 a4 5f bd a6 f2 eb 3d 70 46 10 bc d1 88 81 3d
       -0.054600667 0.11520891 -0.008805856 0.06324924
000150 39 6e 37 3e b3 f6 35 bd e9 da 8f 3d 4f e3 12 3d
       0.1791314 -0.044424724 0.07024176 0.03586131
000160 36 6a 61 3e 27 d5 1e 3c a6 c8 d8 3d 1e 03 d1 bb
       0.22013173 0.009694374 0.10585146 -0.0063785454
000170 b0 a0 21 3b 6f bf 3e ba 78 90 1b be 11 bf 04 3e
       0.0024662428 -0.00072764506 -0.15191829 0.12963511
000180 12 46 82 3e 29 b2 95 bd 26 da ea 3d 1c 63 c7 bc
       0.25444084 -0.07309372 0.1146739 -0.024339251
000190 d4 7f e1 3c b0 dd 29 3d 9d 84 96 3d ab f4 90 bd
       0.027526774 0.041471183 0.07349513 -0.07077917
0001a0 16 b6 0d be 73 18 f7 3d ea 82 f3 bc 22 9a 02 3e
       -0.13838992 0.1206521 -0.02972551 0.1275411
0001b0 41 02 b1 3d 6e b5 60 be 07 b4 27 3e 7f 9e 84 3e
       0.08643008 -0.2194421 0.16377269 0.25902173
0001c0 4f f9 46 be 10 9a dd 3d c4 16 42 bd 52 30 d9 3b
       -0.19431041 0.10820401 -0.047384992 0.0066280747
0001d0 f8 f9 14 bb 47 f7 e9 bd 47 d8 4b 3c 71 82 25 be
       -0.0022732 -0.114241175 0.012441701 -0.1616304
0001e0 fd ac 5f 3e 44 4a 0b 3e 3f ba 1f 3e d1 e2 c8 bb
       0.21843334 0.13602549 0.15598391 -0.0061305542
0001f0 37 1f 8c bd b8 53 08 3e 0e 10 f3 3d f8 d4 0c 3e
       -0.06841891 0.13313186 0.118682966 0.13753116
000200 c9 f9 91 bc df 82 62 3e 80 b5 d1 bd 8f d8 30 be
       -0.017819302 0.22120236 -0.102396965 -0.1727011
000210 a6 fe 03 3d cc b3 4b 3e 1a bb 1f 3d c3 9f e0 3c
       0.032225274 0.19892806 0.038996793 0.02741993
000220 fd 49 10 be 3a dd ee 3d eb fb 63 be 36 18 2a 3b
       -0.14090724 0.11663289 -0.22264068 0.0025954372
000230 69 c7 da 3d 1c e4 ff bc b9 a1 4e bc 02 e3 e8 bd
       0.10682566 -0.0312367 -0.0126118 -0.11371423
000240 85 29 e2 3c fe f0 ba bd 8f 31 73 3c 9a 02 0b be
       0.027607689 -0.09127997 0.014843359 -0.13575211
000250 d4 95 0c 3e fb 5c 2b 3e 95 88 89 3c eb 58 8c bd
       0.1372903 0.16734688 0.01678876 -0.06852897
000260 5f 52 26 3d 48 21 bc 3d bd 5e 95 3d f4 40 f2 3d
       0.0406059 0.091860354 0.072934605 0.11828795
000270 5f 0b 02 3e 24 eb 8d 3c 56 de bc bd cf 88 4d be
       0.1269965 0.017324038 -0.09222095 -0.2007172
000280 7b 87 cc 3d 4d 24 ee bc 46 6e 9e bd 66 38 0e be
       0.09986778 -0.029070044 -0.07735877 -0.13888702
000290 fb 67 b9 3d 54 a9 9c 3d c7 2c 3a 3e 12 e5 2c bb
       0.09053036 0.07649484 0.18181144 -0.0026381654
0002a0 9d 2a 82 3d 76 54 1c 3e 55 b0 8e 3d 99 31 4c 3e
       0.06355784 0.15266594 0.069672264 0.19940795
0002b0 1b 46 4d 3e 74 26 5b 3e f6 71 ce 3d 35 b7 88 3e
       0.20046274 0.21401387 0.1008033 0.26702276
0002c0 cd ef 45 3e 58 fc ca 3d 6f 15 05 3e d6 f3 e3 bd
       0.19329758 0.09911412 0.12996458 -0.111304924
0002d0 71 29 f1 3c 6d f5 f8 3d 86 cd f1 bd 80 76 e6 bd
       0.029438706 0.12156186 -0.118067786 -0.11253071
0002e0 58 2f 9d 3d 09 08 ae 3d 88 65 cb bc c3 67 2b 3d
       0.07675046 0.08497626 -0.024828687 0.041847
0002f0 ee 3b 5b 3d e2 48 2d 3e 8d 36 d1 bc 91 76 54 3e
       0.05352395 0.16922334 -0.025538707 0.20748354
000300 37 ee 11 3e f0 b3 e1 bc b2 37 cd 3d d8 d6 a6 3d
       0.14251028 -0.027551621 0.10020389 0.08146447
000310 5b 52 b9 bc 15 50 d9 bc 62 85 23 be 36 56 4f 3d
       -0.022622278 -0.026527444 -0.1596885 0.050619327
000320 dd cc 0f be 9b 5e c3 3d cb 9b c4 3c 5e dd d8 bd
       -0.14042993 0.09539529 0.02400007 -0.105890974
000330 06 c4 0e 3d 12 1a 59 3c 9f a8 1a 3d 39 87 34 3d
       0.03485491 0.013250845 0.037758466 0.04407427
000340 a0 93 cd bd f6 1b 5b bd e8 af 40 3e 62 10 a1 3d
       -0.10037923 -0.053493463 0.18817103 0.07864453
000350 69 a1 3a 3e 72 44 dd 39 76 0b 56 3c a1 ec 23 3e
       0.18225636 0.000422034 0.013064256 0.16008236
000360 4a 2b cc 3d b2 86 24 3e 5e a7 23 3e b2 5a e1 3d
       0.09969194 0.16067007 0.15981814 0.11003627
000370 3b 3b ad 3d cb 03 98 bd 55 28 11 be d3 22 98 be
       0.08458563 -0.074225985 -0.14175542 -0.2971407
000380 e8 3f 87 3e 63 78 02 be 96 26 0f be a9 52 1b 3e
       0.26415944 -0.12741236 -0.13979563 0.15168251
000390 b1 9c 89 3d a6 38 eb 3d 93 10 af 3a 5d 37 1d 3e
       0.0671934 0.11485414 0.001335638 0.1535315
0003a0 31 8f 50 be 73 f7 d5 bd 1b aa 79 3e 2e 40 0b be
       -0.20367123 -0.10447588 0.24381296 -0.13598701
0003b0 3b d5 9d 3d 3c 00 bc 3c a3 32 8d 3d 3a fe e1 bd
       0.07706686 0.02294933 0.06894424 -0.11034818
0003c0 7a eb f0 3c 48 92 0e be 16 13 18 3e d1 a3 95 3d
       0.029409159 -0.1392299 0.1485103 0.07306636
0003d0 70 58 0f 3d 4d 9f 16 3e f1 37 02 3e 98 49 2a 3d
       0.03499645 0.14709206 0.12716652 0.04157409
0003e0 b1 54 f3 3c 8e e8 c4 bd 1d 73 f1 3d f3 84 b0 3c
       0.02970347 -0.09614669 0.11789534 0.02154777
0003f0 fe c6 af 3b d0 af a0 bc c7 41 40 3e e9 6b 1a 3e
       0.005364298 -0.019615084 0.18775092 0.15080227

fc2.weight f4 [128, 256]
000000 dc 91 50 bd 61 08 08 3e 58 bd 40 3e 6d f1 bf 3d
       -0.050920352 0.13284446 0.18822229 0.0937222
000010 54 3b 55 3c e9 26 dd 3d a8 03 68 3d cb b8 81 bb
       0.013014633 0.10798437 0.056644112 -0.0039587966
000020 db 66 96 bd c5 f1 cd 3b c4 f6 1b 3e 9c 32 47 3d
       -0.07343837 0.0062849247 0.15230852 0.04863225
000030 18 fb ba bd d7 b8 db bc a6 82 9a bd 41 13 e1 bd
       -0.091299236 -0.026821537 -0.075444505 -0.109900005
000040 fc c6 b8 3d e6 1c 72 bc b4 c9 3e be 7e 64 27 3b
       0.09022328 -0.014777398 -0.18631631 0.0025542076
000050 30 19 80 bc 37 1f b5 bc 80 79 45 3d f1 13 aa 3c
       -0.01563701 -0.022109611 0.048211575 0.020761462
000060 67 fe 87 bd 21 37 f3 3c d6 e2 f8 3c 9b ad 00 3d
       -0.0664032 0.029689373 0.030381601 0.031415563
000070 bd dd 9e bd 4e df dd 3d 42 e6 ed bd 8c 3b d7 3d
       -0.07757137 0.108336076 -0.11616184 0.105094045
000080 38 fe 49 bd 2a 9e 1b 3d 83 db b5 3d d7 1b b6 3d
       -0.049314708 0.037992634 0.08879759 0.08892029
000090 e7 ed b1 3d 97 a5 2c bd a8 d5 ee bc 54 6a 98 3c
       0.086879544 -0.042150106 -0.029154614 0.018605389
0000a0 6d 32 2e 3b 63 55 3d 3d 2e dc 13 3d 56 e9 c6 3d
       0.002658035 0.04622401 0.03609865 0.09712474
0000b0 97 79 ce 3d 1b 7e cf 3c bb 3d f9 39 71 04 02 be
       0.10081785 0.025328686 0.00047538974 -0.12697007
0000c0 98 09 0f be 20 96 bf 3d 62 be 62 bb f8 49 84 3d
       -0.13968503 0.09354806 -0.003459834 0.06459421
0000d0 31 62 0a bd 31 6c 76 bc 34 1a 08 be f9 6b 0c 3e
       -0.03378505 -0.015040443 -0.13291246 0.13713063
0000e0 1e 2d 60 bd 2d cc ea 3c 0b 01 cb 3c 6a e9 11 3e
       -0.054730527 0.028661812 0.02478077 0.14249197
0000f0 a3 5c 26 3e ed de 93 3d 9e 1e 20 3e 6c 84 3e 3e
       0.16246276 0.07220254 0.1563668 0.18605202
000100 c0 c9 f8 bb 26 a3 bb bd 4e 4a b0 3d 95 c7 09 3a
       -0.00759241 -0.091619775 0.086079225 0.00052558753
000110 ad 75 20 3d 7f 7a bd 3c ee 5c 1b bd e6 5f fe 3d
       0.039174724 0.0231297 -0.03793042 0.12420635
000120 98 f6 fb 3c 32 00 37 3e f2 a8 85 bd 22 cd f4 3d
       0.030757234 0.17871168 -0.065263644 0.119531885
000130 12 d2 09 be 9e 3a f5 3d 5a f1 0e bb 16 f7 34 3e
       -0.13459042 0.11974071 -0.0021811337 0.17672381
000140 98 d6 16 3c 44 2c fb bd 22 26 b6 3d 09 40 8d bd
       0.009206437 -0.122643024 0.08893992 -0.06896979
000150 06 be 3b 3d 5a 1b 93 bd 35 35 cd bc 64 4d ed 3d
       0.045835517 -0.07182951 -0.025049785 0.11587027
000160 3b de 2b 3d fb a4 b6 3c bc b5 e1 3d 03 f4 dc 3d
       0.041959982 0.022295466 0.11020991 0.10788729
000170 a0 ae e0 bd f8 a2 0b be 5d df 77 bd 0a 4b c7 3d
       -0.10970807 -0.13636386 -0.06051575 0.097311094
000180 1d 29 0a be 43 72 45 3e 81 24 f9 3c 17 73 67 bd
       -0.13492246 0.19281869 0.030412914 -0.056506243
000190 a1 0b 18 be 26 23 d3 3d f4 69 c7 3d 69 fb 05 3e
       -0.14848186 0.103094384 0.09737006 0.13084187
0001a0 48 d2 cd 3c 96 81 80 bc ed 8f ad bd da 7f f0 bc
       0.025124684 -0.015686791 -0.08474717 -0.02935784
0001b0 e9 cb 0e be ac d5 17 3e 63 b8 7c 3c 8b 42 1d bd
       -0.13944973 0.14827603 0.015424821 -0.03839354
0001c0 e0 0b 5f bd 2a b9 53 3d 96 0e c5 3a 89 97 09 3d
       -0.054454684 0.051690258 0.0015034254 0.03359178
0001d0 29 c0 c4 3d 16 c9 a1 3d 20 d1 f2 bd 52 41 dd bd
       0.09606964 0.07899682 -0.11856294 -0.108034745
0001e0 6f 81 de bd 23 fc 94 3c 1d bd 61 bd 0a d8 d6 bd
       -0.10864531 0.018186634 -0.055111993 -0.10490425
0001f0 e3 27 80 be 32 b6 04 bd d1 83 96 3d 16 09 e7 3d
       -0.2503043 -0.032400317 0.07349361 0.1128103
000200 3c c9 e8 bd 9c cf 26 3d 4e b0 d0 bc 4f 27 14 be
       -0.113665074 0.040725335 -0.025474694 -0.1446812
000210 ca b0 6d 3e dc d0 d5 bc 8d 2b 12 bd 15 53 f5 3d
       0.23211971 -0.026100568 -0.035686065 0.11978737
000220 30 ab c6 3d c5 7c 88 bd a1 71 f5 bd 36 59 da bc
       0.0970062 -0.06664423 -0.119845636 -0.026653867
000230 e3 9e cd bd 84 27 1b 3e b7 c1 6a bd 74 90 39 3c
       -0.10040071 0.15151793 -0.057313647 0.011325944
000240 23 d2 24 3e 14 8c bf 3d 73 53 b8 bd 14 e6 03 3e
       0.16095786 0.0935289 -0.09000292 0.12880737
000250 f3 d4 62 bb 6f 1c f4 3d f4 3c 27 bd dd 39 cc 3d
       -0.003461179 0.11919486 -0.040829614 0.09971974
000260 e0 00 86 bc 1c 99 eb 3c a1 db 57 bd e5 d9 13 3e
       -0.01635784 0.028759532 -0.05269969 0.14438589
000270 e6 d5 8e 3c b0 c2 04 3e 7d 17 15 3e d4 59 ca 3c
       0.01743598 0.12964892 0.14559741 0.024701037
000280 fd cc fe bd a6 1a ca bc ae a2 d6 be 45 db f3 3d
       -0.12441442 -0.02467091 -0.4192099 0.11907057
000290 36 9b ad bd dd a5 18 be ab fd 65 be cc 12 0c bd
       -0.0847687 -0.14907022 -0.22460048 -0.034197614
0002a0 a4 a1 39 3e 1a a9 70 bc 71 4c 09 be be 9b 01 bd
       0.18128067 -0.014688754 -0.13408066 -0.031642668
0002b0 39 f9 94 bd a6 cc 34 be cf 5b 90 3d 4d 86 96 3d
       -0.07274098 -0.17656192 0.07048761 0.073498346
0002c0 d4 75 15 3d 6e f6 05 3e 3d 5e ed bd bc 45 1d be
       0.036489323 0.13082287 -0.1159024 -0.15358633
0002d0 9f 7f 7b bd 60 b8 8f 3d 72 e3 22 3d dd 5c 39 be
       -0.061401006 0.070175886 0.03976769 -0.18101831
0002e0 a2 6f e8 3d ca d3 a7 3d ac 2e 6e 3e 20 e7 a8 3c
       0.11349417 0.081946924 0.23259991 0.020618021
0002f0 c7 92 48 bd 1f 57 41 bd c1 4f 94 3d 41 44 a4 3d
       -0.048968103 -0.047202226 0.07241774 0.08020831
000300 54 48 a9 3d 44 3c c3 bb 12 35 a9 3d 80 a8 35 be
       0.082657486 -0.005958112 0.082620755 -0.17740059
000310 1d bc 7d bb a0 51 03 bd db 66 69 3e 39 bf 3f 3c
       -0.003871686 -0.032060266 0.22793142 0.011703306
000320 a8 b6 74 bd b3 0f 1e be 50 b9 a5 3d 69 8c 86 bc
       -0.059744507 -0.15435676 0.08091986 -0.016424375
000330 b8 15 7e 3d 2d 6f 9c 3d d2 41 00 be 47 d7 9e bc
       0.06203243 0.076383926 -0.12525108 -0.019389762
000340 b0 83 a0 bd 22 2d 10 3c ee 9a 51 bd 4a 2d 15 3e
       -0.078376174 0.008799823 -0.051173143 0.14568058
000350 b8 1f 2c be 97 07 f4 bd 62 6a c9 bc 5f ae c5 3d
       -0.16808975 -0.1191551 -0.02458686 0.09652399
000360 17 20 92 3d f0 ac 4a be 6f 4b 15 be a5 68 88 3d
       0.07135027 -0.19792533 -0.14579557 0.06660584
000370 8d 10 c1 3d 51 08 71 3d 15 0b 31 be 03 5a f5 bd
       0.09426985 0.05884582 -0.17289384 -0.11980059
000380 43 a5 0e 3e 06 c6 dd bd da c8 6d 3d 80 f8 6b 3d
       0.1393023 -0.108287856 0.058052875 0.057610035
000390 37 79 4a 3e 06 de 87 bc 90 47 19 3e 25 35 b6 3d
       0.19772802 -0.016585361 0.14968705 0.08896855
0003a0 46 d1 56 3e 2c 38 2b 3d 4b ca 71 bc 85 d1 2d be
       0.20978269 0.041801617 -0.014757703 -0.16974457
0003b0 6d 5f 9b 3c f6 08 76 3a e9 4d ea 3b 9f c5 4b 3d
       0.018966401 0.00093854906 0.007150401 0.049749013
0003c0 1b cf 83 bd 8a 3e ca 3c bc 58 10 bd 0c 3c 88 3d
       -0.064359866 0.024688024 -0.035240874 0.06652078
0003d0 12 44 aa 3c 8d 58 46 bc a5 ca 44 bd 75 00 f1 3b
       0.020784412 -0.012106073 -0.04804482 0.007354791
0003e0 1e 09 9f bd ad 21 c1 bc 36 41 25 3d 33 cf 02 3d
       -0.07765411 -0.023575628 0.040345393 0.03193588
0003f0 5c c7 81 3c c6 aa 3b 3e 74 49 8d 3d d8 5f fe ba
       0.015842132 0.18326864 0.06898776 -0.0019407226

fc2.bias f4 [128]
000000 d2 a9 ca 3c ff ed a7 bc b1 7f 5b bd e8 67 4f bd
       0.02473918 -0.020499228 -0.053588573 -0.050636202
000010 27 d1 10 bc 49 de af 3d 4f 4b a3 bc 2d 5d a5 bc
       -0.008838928 0.085873194 -0.01993337 -0.020186031
000020 dc a5 5a 3c 7e d0 16 bc 58 fc 24 3d 2d a8 6b bc
       0.013345208 -0.009204982 0.040279716 -0.014383358
000030 d9 43 20 bd ee 75 02 bd f3 c5 d1 3c 07 8f 6a 3d
       -0.039127205 -0.031850748 0.025607085 0.057265308
000040 57 01 20 3d 2c d8 af 3d 55 4e 96 3c 2b e2 c0 bc
       0.039063778 0.085861534 0.018347898 -0.023545345
000050 77 53 60 bc 4e 38 be bc 0c 48 94 bd 70 ed 50 3d
       -0.013691775 -0.023220208 -0.07240304 0.051007688
000060 fd 2e 41 3c c7 f4 a4 bc 1f a4 8b bc 7f 1c 78 3d
       0.011790988 -0.02013625 -0.017046032 0.06057405
000070 bc 67 84 bd 7f 18 46 3b a4 c4 74 bd 68 08 30 3c
       -0.06465098 0.0030227003 -0.059757844 0.010744192
000080 e3 ab 78 bb e3 dc 44 bd cd 74 d1 bd 47 a7 45 bd
       -0.003794425 -0.048062216 -0.10227356 -0.04825523
000090 e0 24 cb 3c b4 49 74 bc e2 10 c0 bc 8a ee 54 bc
       0.024797857 -0.01491015 -0.02344555 -0.012996325
0000a0 b7 67 e8 3d 7b b6 a0 bb 39 0e 73 3c 2c 68 57 bc
       0.11347907 -0.004904566 0.014834934 -0.013147395
0000b0 db 07 2b bd 82 94 85 3b 83 f3 a4 3c 24 17 94 3c
       -0.04175554 0.0040765414 0.020135647 0.01807744
0000c0 12 46 94 3c 06 bb 5b 3d 32 ca c2 3c a7 07 fa 3b
       0.018099818 0.053645156 0.023778055 0.0076303068
0000d0 bb 8b ed 3c 70 1d 22 bd e0 d9 8b bd d0 d1 76 3d
       0.028997293 -0.039578855 -0.06828666 0.060258687
0000e0 3d 5c a1 3b d1 19 6f bc a6 bb 02 3d db 4c a7 3c
       0.0049243257 -0.014593557 0.031917237 0.02042239
0000f0 83 94 13 bd b3 d3 33 3c f8 ce 2d 3c a3 11 94 3d
       -0.036030304 0.010975766 0.010608427 0.072299264
000100 a2 82 89 bd e8 35 7b 3d 1e 88 f4 bb bf 79 88 bc
       -0.06714369 0.061330706 -0.0074625155 -0.016659616
000110 d3 69 7c 3b 17 7c 04 bb 0d a6 b8 3b 01 9b 58 3d
       0.0038515225 -0.0020215565 0.005635029 0.0528822
000120 31 79 1b 3d 2f 72 9e 3c 7c 90 a9 bc c0 49 ab 3d
       0.037957374 0.019341556 -0.020698778 0.08363676
000130 58 c4 33 bd af 5b 0a bd fc 9c 44 3c 2e 96 94 3d
       -0.04388842 -0.033778843 0.012000319 0.07255207
000140 18 af 82 bd 44 cb c1 3c ee da 6b 3d fa 9f bc bc
       -0.06381053 0.023656495 0.057581834 -0.023025502
000150 00 e3 b5 b9 ba 0b 54 bd 4d 7c 95 3d b2 12 06 bc
       -0.00034692138 -0.051768996 0.07299099 -0.008183168
000160 30 f0 27 3d 1c 68 35 bc 9e 6f b7 3d 60 c0 4e 3d
       0.041000545 -0.011072185 0.08956836 0.05047643
000170 17 01 77 3d 26 88 f5 3b 07 f0 2f bd fe f6 74 3d
       0.060303774 0.007493037 -0.042953517 0.059805863
000180 0f f9 d8 bb 85 ed 23 3d 51 f1 a2 3c e7 23 c9 bc
       -0.006621487 0.04002144 0.01989046 -0.024553252
000190 5f a6 5b bd eb f2 87 3d ce 1e b1 bd 1b db 6c 3c
       -0.05362546 0.0663813 -0.08648454 0.014456536
0001a0 97 3e 82 3d 69 85 45 bd d9 ec 97 bc 2a a7 b4 3d
       0.06359594 -0.048222933 -0.018545555 0.088209465
0001b0 9d 21 b7 3d 67 83 8a 3c b7 67 02 bc ab 19 92 bc
       0.08941958 0.01690836 -0.007959298 -0.017834505
0001c0 b4 8d bf 3d 1f 90 32 bd d6 24 b4 3d 8c e8 04 3c
       0.093531996 -0.043594476 0.087960884 0.008112084
0001d0 88 7a 66 3d 77 77 96 3c c5 5c 6e 3d 99 f2 c4 3d
       0.0562692 0.018367512 0.05819394 0.09616584
0001e0 74 f0 82 bd 02 b9 34 3c 62 f7 b4 bb 64 56 61 3d
       -0.06393519 0.011030437 -0.0055226544 0.05501403
0001f0 8d 6a 63 bc e4 58 95 bd 92 71 be bc 72 d4 83 bc
       -0.013880384 -0.07292345 -0.023247514 -0.016092513

fc3.weight f4 [4, 128]
000000 36 5a e9 3d c7 1e 80 bd 45 65 17 bd 04 b1 b5 3e
       0.113941595 -0.0625587 -0.036961813 0.35486615
000010 6e e9 7c bd d6 14 de bd 10 43 a3 3c bc 8d df 3e
       -0.061746053 -0.10843818 0.019929439 0.43662822
000020 0e a8 9f 3c 41 bc 31 be 89 c0 6b 3e 67 e5 28 bd
       0.019489314 -0.1735697 0.23022665 -0.0412344
000030 ae c6 32 3e 77 cb 24 bd 05 61 4b 3e ed 97 e9 3d
       0.17458603 -0.0402331 0.19861229 0.11405931
000040 07 b9 a2 3d 8a 55 fc 3d 7a cb 01 bd 57 62 0a 3e
       0.079454474 0.12321003 -0.03168819 0.13514076
000050 e7 f5 96 3d 4e a8 be 3e 2f 03 a5 3d f8 64 43 bd
       0.07371121 0.3723778 0.08057248 -0.047703713
000060 e8 30 4a bd df 27 95 3e 39 29 b3 bd 27 43 ac bd
       -0.049363047 0.29131982 -0.08748097 -0.08411246
000070 4b 8c 99 be ad 61 90 3d fb e4 1f 3e 3c 34 08 3e
       -0.29989848 0.0704988 0.15614693 0.13301176
000080 d4 d6 9c bd 48 85 f7 bd 13 e1 46 3e cb 11 0f 3e
       -0.07658163 -0.12085968 0.19421797 0.13971631
000090 80 da 1b be d6 af b1 be ab be af be 79 a9 a5 3d
       -0.1522007 -0.34704465 -0.34325156 0.08088965
0000a0 cf 70 a2 bd c9 33 13 be 3c 69 a2 be f6 d4 32 3e
       -0.07931673 -0.14375223 -0.31720912 0.1746405
0000b0 f3 73 ef 3e 67 5a 51 3e 16 f9 85 3e 15 d6 b4 bd
       0.4676815 0.20444642 0.261666 -0.088298954
0000c0 99 ad 30 3e 14 a7 ef bd c4 98 ce bd 24 39 25 3d
       0.17253722 -0.117017895 -0.100877315 0.040337697
0000d0 f4 1b 97 bd 06 a5 83 3e 49 a2 a2 bd b3 e4 91 3e
       -0.073783785 0.2571184 -0.0794111 0.28494796
0000e0 30 53 6a 3d 1b 60 e9 bd c3 93 82 be a7 2b 02 be
       0.05720824 -0.11395284 -0.25503358 -0.12711965
0000f0 fc cf 88 bd 47 18 50 bd 35 e1 45 bd bd 94 48 3e
       -0.06680295 -0.050804403 -0.048310477 0.19587989
000100 78 38 26 be d4 38 ae be 48 b4 3b be c7 79 8e ba
       -0.16232479 -0.3402773 -0.1833049 -0.0010870033
000110 49 32 ab 3e 44 84 87 3e 79 e0 c5 bd c0 bd a7 3e
       0.33436802 0.26468098 -0.096619554 0.32761955
000120 93 54 e2 3d 48 fd 06 3e e5 ff 4b bd b9 6d 10 bd
       0.110512875 0.13182557 -0.049804587 -0.03526089
000130 83 8a a7 3e 47 61 4b 3d 3c 06 30 bc e4 e4 e8 bd
       0.32722864 0.049653318 -0.010743674 -0.113717824
000140 70 f5 a0 be 84 19 09 3e 82 17 a8 3e 34 ee 99 3d
       -0.31437254 0.1338864 0.32830435 0.07516137
000150 5f cf 3a 3e 3b d3 37 3e ca 02 af bd 97 0e 5e be
       0.18243168 0.17951672 -0.08545454 -0.21685253
000160 1d e9 00 3b 8f 48 cb bd 75 a3 2b 3e c2 7c 4a bd
       0.0019670196 -0.09925949 0.16761573 -0.049435385
000170 e9 3d b8 bd 9e e6 6f be 82 d1 7b 3e cf ba 9c 3d
       -0.089961834 -0.23427817 0.2459164 0.076528184
000180 18 e5 05 3e 4b f7 32 be eb 39 66 3c e2 be 6a 3e
       0.13075674 -0.17477147 0.014051895 0.22924379
000190 d5 8c d1 bc c6 df 40 bd f3 80 bd 3d d4 85 e6 bd
       -0.02557985 -0.047088407 0.09253111 -0.112559944
0001a0 31 70 bf bc 24 65 59 be f9 b3 40 be 3d ba 13 3e
       -0.023368927 -0.21229988 -0.18818654 0.14426513
0001b0 73 1f 2c 3d 38 dd 50 3d 8d 4a 51 be 87 a0 5a 3e
       0.04202218 0.05099222 -0.20438595 0.21350299
0001c0 b2 07 27 3e a0 e9 67 be 3d 1f ed bd 23 e8 6d 3e
       0.1631153 -0.22647715 -0.11578224 0.23233084
0001d0 0a 3f 63 3d a7 de dc 3a f4 d7 25 be ed 62 1e bd
       0.05548004 0.0016851024 -0.16195661 -0.03866856
0001e0 00 0c 11 be 43 38 ee 3d d4 d4 e7 bd 70 e6 bb be
       -0.14164734 0.11631825 -0.113198906 -0.36699247
0001f0 9e 35 bc bd 1f b6 c6 3e 5b 36 2f 3f a9 d4 10 be
       -0.09189914 0.38810822 0.68442315 -0.14143623
000200 27 d7 c6 bd 3c ce 20 3e 91 b4 db 3d 36 2f c2 3e
       -0.09709006 0.15703672 0.107278 0.37926644
000210 04 e9 c6 ba d8 de 56 3d 25 66 b9 be 1d cf e9 3d
       -0.0015175645 0.052458614 -0.36210743 0.11416457
000220 e6 84 6b 3d c0 5e 1d 3e a6 b1 40 3e b7 14 63 3e
       0.05749979 0.15368176 0.18817768 0.22175871
000230 f3 9f 81 bd 35 4c a1 3e 53 a3 de 3e 35 0f b9 3d
       -0.06329336 0.31503454 0.43483981 0.09036104
000240 c5 5a a7 3d 7b cc 03 3e 94 34 2f 3d a1 fa 24 3f
       0.0817161 0.12870972 0.04277475 0.6444493
000250 bf c3 90 3e 15 9f c3 3d 61 c3 91 3e fc 60 3b bc
       0.28274342 0.09551827 0.28469375 -0.011436697
000260 91 1d 33 bd f5 c3 26 3e f4 2a 3f 3e 38 4a b9 bc
       -0.04372937 0.16285689 0.18668729 -0.022618398
000270 1d f7 0c 3f b4 cb 1c bf 57 f2 d7 bd 46 ea b5 be
       0.55064565 -0.61248326 -0.105442695 -0.355303
000280 06 a5 3f 3e f2 95 73 bd 51 4f 28 bf 74 c5 18 3e
       0.18715295 -0.05946917 -0.6574603 0.14919072
000290 84 17 84 3d 4c 23 d3 bd 84 d8 75 3d 87 fd 45 bd
       0.06449798 -0.10309467 0.06002094 -0.048337486
0002a0 14 ed 05 be 0f f8 57 3e c5 07 ce 3d fe 8a a5 3d
       -0.1307872 0.2109072 0.10060076 0.08083151
0002b0 5c 1d df be ac c4 b2 3d 3b eb 0c be 75 4a a6 3c
       -0.43577087 0.087289184 -0.13761608 0.020299176
0002c0 38 5c ac bd 73 08 c8 3e 71 6d ca bd 26 f0 7f 3e
       -0.08416027 0.39068946 -0.098841555 0.24993953
0002d0 bd 8d 2a bd d9 e1 49 be 5d 3e 79 3e 1e f4 d3 bd
       -0.04163908 -0.1971506 0.24340196 -0.10349296
0002e0 5d fa 17 3d 65 05 18 be 3b ad b4 3c dd f3 2f 3e
       0.037104 -0.14845808 0.022055259 0.1718287
0002f0 6c 2b ec 3b a6 55 41 be e0 8c 9d 3e c9 ad 11 3e
       0.0072073247 -0.18880329 0.30771542 0.1422645
000300 e7 74 1f 3d 5d bd 80 3e bd 6d d5 3b 12 42 7a be
       0.038929846 0.25144473 0.006513326 -0.24439266
000310 f7 96 83 3e b7 4e 5a bd 61 8d af bd 39 e9 0d be
       0.25701115 -0.053297725 -0.08571888 -0.13858499
000320 42 c0 be 3c 88 fa 9a bd 00 82 9d 3e 86 76 e2 b8
       0.023285035 -0.07567316 0.30763245 -0.000107985965
000330 2e c9 ff bb 0e 3d 2c 3f a5 48 8b be bf 3b 57 bd
       -0.007805965 0.6728066 -0.2720386 -0.052547213
000340 a4 d6 c3 3e bb 99 1f 3e 62 6b 4a be d7 df 83 bd
       0.38249695 0.15585987 -0.19767526 -0.064391784
000350 c8 a5 b7 3e 22 53 2f 3f f3 4a 23 3e c0 93 af 3d
       0.3586867 0.68486226 0.1594656 0.08573103
000360 e3 3c 40 bb 94 76 81 bd 5f cf 8a 3e 04 fe 06 3e
       -0.0029333166 -0.06321445 0.27111337 0.13182837
000370 90 7b 26 bb 7c 08 09 bf ad f3 b3 bc e4 df c4 3b
       -0.0025403239 -0.5352857 -0.02196678 0.006008135
000380 41 df 55 3d 52 e9 05 be b5 ab 7c bc 1c e2 8c bd
       0.052214865 -0.13077286 -0.0154217975 -0.068790644
000390 3f 8d 5f be d9 dd 9b bc 85 dc ca 3e e5 42 fa bc
       -0.21831225 -0.019026684 0.39621368 -0.030549476
0003a0 56 3d ac 3e dc 8e 45 bd df a9 2a be 8a 5e 0f bd
       0.33640546 -0.048231944 -0.16666363 -0.03500227
0003b0 51 2d 91 3d 1b fd 10 be 7c 60 6f 3d 06 58 9c bd
       0.070887215 -0.14159052 0.058441624 -0.07633977
0003c0 2a 6d 1a be 12 3c 3e be dd 38 82 bd 41 f0 47 bf
       -0.15080705 -0.18577603 -0.06358502 -0.78100973
0003d0 3c 9b f8 39 1b f7 ce bd 5d 54 f4 bc e4 b9 27 ba
       0.00047417905 -0.101057254 -0.029825384 -0.00063982443
0003e0 9d 5d 1a be 7e e4 d7 bd 60 8c 2b bd 67 bf df bd
       -0.15074773 -0.10541628 -0.04188192 -0.10925179
0003f0 3f ef 9a bd ad e2 88 3d e2 d7 61 3d 1e b7 65 3e
       -0.07565164 0.0668386 0.055137523 0.22433135

fc3.bias f4 [4]
000000 81 f4 bd 3c d8 0c 18 bd 80 e4 93 3d 80 d7 17 bd
       0.023187878 -0.037121624 0.07221317 -0.03707075
