checkpoint_critic-final.pth (torch_old, 170026 bytes, 5 tensors)

fcs1.weight f4 [256, 33]
0	0x3c010edb	0.007877077
1	0x3d3804f6	0.044926606
2	0x3d2bf19c	0.041978464
3	0xbdcb2769	-0.09919626
4	0xbd010db2	-0.0315072
5	0xbe049d4d	-0.1295063
6	0x3d91ad2e	0.071131095
7	0xbcacb0c5	-0.021080384
8	0xbc7b7359	-0.015347325
9	0x3d8064c9	0.06269223
10	0x3c95105f	0.018196283
11	0x3bf3763b	0.0074298657
12	0xbd5aa130	-0.053376377
13	0x3d32f329	0.043688927
14	0x3c03b86d	0.008039576
15	0xbd26214b	-0.040559094
16	0x3e003778	0.1252116
17	0xbd830061	-0.06396557
18	0x3cf3e23c	0.029770963
19	0xbd36b2fc	-0.044604287
20	0xbda9493a	-0.0826592
21	0xbd323994	-0.043511942
22	0x3ce25393	0.027627742
23	0x3cd9dc4e	0.026594307
24	0xbcb9088a	-0.02258708
25	0x3c3eba6e	0.011641128
26	0xbcc63814	-0.024196662
27	0xba8ee949	-0.0010903265
28	0xbd070749	-0.032965932
29	0xbd4e6a80	-0.050394535
30	0xbd764232	-0.060121723
31	0x3d2599be	0.040429823
32	0xbe15b24d	-0.14618798
33	0xbcc522e8	-0.024064496
34	0xbdf3241e	-0.11872123
35	0xbc86b2fa	-0.016442765
36	0x3cf8fc55	0.030393759
37	0xbca75c1b	-0.020429661
38	0x3d83ef61	0.06442142
39	0x3cfb7de8	0.030699685
40	0x3b3f43a7	0.002918461
41	0x3d95e1f0	0.07318485
42	0xbc5c9006	-0.013462072
43	0x3d1cff68	0.038329512
44	0x3d1aae09	0.03776363
45	0x3ceec1a7	0.029145075
46	0x3d43e5c7	0.047826555
47	0x3d4cfc55	0.05004533
48	0xbbc4efc8	-0.0060100295
49	0x3c7c5648	0.01540143
50	0xbc2e910e	-0.010654701
51	0x3d17c6be	0.03705477
52	0xbd839193	-0.064242505
53	0x3c96bc1e	0.018400248
54	0xbd37e4b2	-0.044895835
55	0x3c925376	0.017862063
56	0xbc9204b6	-0.017824512
57	0x3caa60ef	0.020798175
58	0xbcad45a6	-0.021151375
59	0xbd92c18a	-0.07165821
60	0xbdbc795c	-0.09202835
61	0x3dc985ea	0.09839995
62	0x3ca3f630	0.020014852
63	0x3d9fb107	0.07797437
64	0x3b9d9aa0	0.0048096925
65	0x3dbb3b91	0.09142221
66	0x3c822ac3	0.015889531
67	0x3d06dc9f	0.032925244
68	0x3b9b7c58	0.0047450475
69	0xbc886824	-0.01665122
70	0x3c1c1a11	0.009527699
71	0x3a31d55b	0.00067838066
72	0xbdf73999	-0.12071533
73	0x3d496917	0.049172487
74	0x3bfa3d8a	0.0076367306
75	0xbc8c7986	-0.01714779
76	0xbce3eb0c	-0.02782204
77	0x3d61833b	0.05505679
78	0xbbd9be6a	-0.0066450136
79	0xbd327c73	-0.043575715
80	0x3da82f08	0.082120955
81	0xbd7af0f9	-0.061264966
82	0x3da39bac	0.079886764
83	0x3bdc1ee0	0.006717548
84	0x3d669a02	0.056299217
85	0x3cb9a635	0.022662262
86	0xbd04325a	-0.03227458
87	0xbd5756da	-0.052573062
88	0xbd48a016	-0.048980795
89	0xbb5315e2	-0.0032209088
90	0x3cc94c40	0.024572492
91	0xbd544b95	-0.051829893
92	0x3d8f917d	0.070101716
93	0x3d70aafb	0.05875681
94	0xbd259e15	-0.040433962
95	0xbb512e40	-0.0031918436
96	0x3c09b68e	0.008405341
97	0xbd5e991e	-0.054345243
98	0xbccf8836	-0.025333505
99	0x3db09f9c	0.08624193
100	0x3d694b6e	0.0569567
101	0x3d43c5c5	0.04779603
102	0xbc47e8e9	-0.012201526
103	0xbd1c2105	-0.038117427
104	0x3d20fb2b	0.039302032
105	0x3d3a2bb0	0.04545182
106	0xbd50c572	-0.05096955
107	0x3d274b43	0.04084326
108	0x3d12745d	0.035755504
109	0x3d7b83ca	0.06140498
110	0x3d1e6d5f	0.038678523
111	0xbda9e4a5	-0.082955636
112	0xbd2bc32f	-0.04193419
113	0x3d6dfb5b	0.05810104
114	0xbcfc4b20	-0.030797541
115	0xbdd637d9	-0.10459871
116	0x3b94d06b	0.004541447
117	0xbd83b83e	-0.06431626
118	0xbbfa5846	-0.0076399175
119	0x3b9933ac	0.004675349
120	0x3da11512	0.07865347
121	0xbdb41d7f	-0.087946884
122	0xbb9e34cb	-0.0048280708
123	0xbd4042dc	-0.046938762
124	0xbd05ab33	-0.03263397
125	0x3cad403e	0.021148797
126	0x3da5f665	0.08103637
127	0xbcd0437b	-0.025422802
128	0xbccaa0b8	-0.02473484
129	0x3cb2ef5e	0.021842655
130	0xbc33c680	-0.010972619
131	0xbd9f4504	-0.077768356
132	0x3c316157	0.01082643
133	0xbca0b817	-0.01961903
134	0x3da4adf4	0.080409914
135	0xbd35c48c	-0.044376895
136	0xbd5f2e84	-0.05448772
137	0x3d617d0b	0.05505089
138	0x3d96c66e	0.07362066
139	0x3ac53644	0.001504608
140	0xbd6310b4	-0.05543585
141	0x3d6e19b8	0.058129996
142	0xbc077b16	-0.008269092
143	0x3da6c11a	0.081423
144	0x3c8bc2b3	0.017060613
145	0x3bf01b74	0.0073274914
146	0x3b791854	0.0038008885
147	0xbca579c9	-0.020199673
148	0xbd270f21	-0.040785912
149	0xbd0c09f5	-0.034189183
150	0xbd39ba97	-0.04534396
151	0xbca07a4b	-0.019589564
152	0x3caac652	0.02084652
153	0x3da1c96d	0.07899747
154	0x3d545327	0.051837113
155	0x3d83c8f3	0.064348124
156	0x3b456323	0.0030118905
157	0x3cb033ef	0.021509139
158	0xbbc1cd25	-0.0059143477
159	0x3d20c073	0.039246034
160	0xbd2633dc	-0.0405768
161	0x3c92d958	0.017925903
162	0xbd3f955d	-0.046773303
163	0x3c88a194	0.016678609
164	0x3aae1145	0.0013280293
165	0xbd201bca	-0.039089
166	0x3d7b7772	0.06139321
167	0xbc43f785	-0.011960869
168	0xbcab67de	-0.020923551
169	0xbd04c417	-0.03241357
170	0xbc9db23b	-0.019250026
171	0xbc2bb62d	-0.010480446
172	0x3c9b2faf	0.018943636
173	0xbd6a7169	-0.057237063
174	0xbcf36dc2	-0.029715423
175	0xbd0d7441	-0.034534696
176	0x3cae1aa5	0.02125294
177	0x3be17f40	0.0068816245
178	0x3dfe824e	0.124271974
179	0xbe006a08	-0.12540448
180	0xbceb1f52	-0.028701458
181	0x3c5f575d	0.013631669
182	0xbd0a2e0e	-0.033735327
183	0xbcda0e61	-0.026618185
184	0xbd2d67d7	-0.042335358
185	0x3bd7c318	0.0065845363
186	0xbcaaf281	-0.020867588
187	0x3a89c7f2	0.0010511859
188	0x3d24f536	0.040272914
189	0xbbf89604	-0.0075862426
190	0xbc4b53ec	-0.012410145
191	0xbd853668	-0.06504518
192	0x3d5a24e1	0.053257827
193	0x3cc74868	0.024326518
194	0x3d441aa4	0.04787697
195	0xbd49b192	-0.04924161
196	0x3c1980c8	0.009369083
197	0x3d7e75bf	0.06212401
198	0x3d090047	0.03344753
199	0xbce94ae0	-0.028478086
200	0xbdca91e3	-0.09891107
201	0xbd9a61dc	-0.075381964
202	0xbd1b9bd9	-0.037990425
203	0x3c884a1d	0.016636902
204	0x3ba6f0d2	0.005094626
205	0x3d8d4739	0.0689835
206	0x3d17f344	0.03709723
207	0xbd5b6a76	-0.053568326
208	0x39b1e815	0.00033932985
209	0xbd389eea	-0.045073427
210	0x3c80c3b6	0.015718322
211	0x3b9133d5	0.0044312277
212	0x3bccee9a	0.0062540295
213	0xbd25a66c	-0.040441915
214	0x3c538659	0.012910449
215	0xbde3e894	-0.11128345
216	0xbcb501e4	-0.022095628
217	0xbd43f9df	-0.047845718
218	0x3c820a3d	0.015874023
219	0xbe01e833	-0.12686233
220	0x3bd07529	0.006361623
221	0x3d85e80d	0.06538401
222	0x3d2cffdf	0.042236205
223	0x3da24a48	0.07924324
224	0xbd0cc1e8	-0.03436461
225	0x3d981768	0.074263394
226	0x3d126a92	0.035746165
227	0xbd438164	-0.04773082
228	0xbdcd8520	-0.10035157
229	0x3abe9d80	0.0014542788
230	0x3ccaf722	0.024776045
231	0xbd217055	-0.03941377
232	0xbc08ba82	-0.008345248
233	0x3da7c227	0.081913285
234	0xbcc65bf5	-0.02421377
235	0x3cb32038	0.021865949
236	0xbcf36a60	-0.02971381
237	0x3d979799	0.07401962
238	0x3d28327e	0.041063778
239	0x3cdf6186	0.027268182
240	0x3d801645	0.062542476
241	0xbd13bfac	-0.036071464
242	0x3c93cf1a	0.01804309
243	0xbd14e003	-0.036346447
244	0xba82881f	-0.000995878
245	0xbc0f40b3	-0.008743453
246	0xbd589df2	-0.052885003
247	0xbd1517f9	-0.036399815
248	0xbd7eea4a	-0.062235154
249	0x3d9f0681	0.077649124
250	0x3caaa72c	0.020831667
251	0x3c87cbd1	0.01657668
252	0x3d88c259	0.06677694
253	0x3d2e9948	0.04262665
254	0xbc6f286a	-0.014597038
255	0xbb8c6e7f	-0.004285633

fcs1.bias f4 [256]
0	0x3d143dc6	0.036191724
1	0x3e48e482	0.19618419
2	0xbd825a1d	-0.06364844
3	0x3def8fe8	0.1169737
4	0xbc55cbb6	-0.013049057
5	0xbe477006	-0.19476327
6	0xbe51396c	-0.20432061
7	0xbdbdc69e	-0.09266399
8	0xbab636c7	-0.0013901823
9	0x3d9f7ade	0.07787107
10	0xbd40ed48	-0.04710129
11	0xbc588557	-0.013215384
12	0x3d9e3f61	0.07726932
13	0xbceacc94	-0.028662004
14	0xbc092bf8	-0.008372299
15	0x3d0118b9	0.031517718
16	0xbd0c1798	-0.03420219
17	0xbe2302c7	-0.15919028
18	0x3e35c244	0.17749888
19	0xbd9403a7	-0.07227259
20	0x3d7e84ea	0.062138475
21	0xbcdeaaf5	-0.027181128
22	0x3d44de90	0.048063815
23	0x3cf42e8f	0.029807357
24	0xbd8b81ee	-0.068118915
25	0xbdec47cd	-0.115371324
26	0x3d16b88c	0.03679709
27	0xbd94738d	-0.07248602
28	0x3d8d288d	0.068925
29	0x3c0ba129	0.00852231
30	0x3c26d5d4	0.010182817
31	0xbde36384	-0.111029655
32	0xbe066e3b	-0.13127987
33	0xbe0ad427	-0.13557492
34	0x3dc7c6c2	0.09754707
35	0xbc801ff2	-0.015640233
36	0x3dea9ed0	0.11456072
37	0x3d190b71	0.037364427
38	0xbdc5c545	-0.09656767
39	0x3dc432fe	0.095800385
40	0xbd4e6950	-0.050393403
41	0xbdba1479	-0.09085936
42	0x3dab2c44	0.083580524
43	0xbe1286da	-0.14309254
44	0xbc8642b5	-0.01638923
45	0xbe52bfad	-0.20580931
46	0x3d891906	0.06694226
47	0x3d1b3030	0.037887752
48	0x3dd8c959	0.10585279
49	0xbdbcdb66	-0.092215344
50	0xbe2afc20	-0.1669774
51	0x3d109a85	0.03530361
52	0xbe1614db	-0.14656393
53	0xbdd8c100	-0.10583687
54	0xbdd4724c	-0.10373363
55	0x3d6fd0ff	0.058548924
56	0xbda1591c	-0.078783244
57	0xbd28a195	-0.04116972
58	0x3d6cbbbe	0.057796232
59	0xbd3859f8	-0.045007676
60	0xbde722cb	-0.11285933
61	0x3e291b5c	0.16514343
62	0xbe378d88	-0.17925084
63	0xbd157319	-0.03648672
64	0xbd41bdca	-0.047300138
65	0xbdced65c	-0.100994796
66	0x3dbbbb94	0.09166637
67	0x3e268c5b	0.16264479
68	0x3d9140a0	0.07092404
69	0x3ced8dba	0.028998245
70	0x3dc097b0	0.09403932
71	0x3dc4f393	0.096167706
72	0xbd659870	-0.05605358
73	0xbe0515a6	-0.1299654
74	0x3c7cd1ef	0.015430911
75	0x3dcad974	0.09904757
76	0x3e07c55e	0.13258883
77	0xbdc2bee3	-0.09509065
78	0x3e188b13	0.14896803
79	0xbe0c4850	-0.1369946
80	0xbb3b00bb	-0.002853437
81	0x3e4fd34c	0.20295447
82	0xbd22b085	-0.039719123
83	0x3d8b2db7	0.06795829
84	0x3d2cd9f2	0.042200036
85	0xbe054a2d	-0.13016577
86	0x3e1dd0ef	0.15411733
87	0x3dceab31	0.10091246
88	0x3cf0e61c	0.0294066
89	0x3de28ceb	0.11062034
90	0x3e0d955e	0.1382651
91	0x3d4b83b6	0.049686156
92	0x3d9750d0	0.07388461
93	0xbe612634	-0.2198723
94	0xbe56505e	-0.20929095
95	0x3d42a7a9	0.047523174
96	0x3e03af4d	0.1285984
97	0xbd48b3a3	-0.04899944
98	0x3e2c98e1	0.16855194
99	0xbc8978d9	-0.016781257
100	0x3d45a556	0.04825338
101	0xbd2241a0	-0.039613366
102	0xbb9cef2a	-0.0047892528
103	0xbdcf01c1	-0.101077564
104	0xbdf2925d	-0.11844323
105	0xbb0ebcf9	-0.0021780117
106	0xbbf8de30	-0.007594846
107	0x3e098beb	0.1343228
108	0x3d06fc25	0.032955308
109	0xbd1668c7	-0.036721017
110	0x3e124a01	0.14286043
111	0x3e6ae127	0.22937451
112	0xbe0f9b1f	-0.14024018
113	0x3da99fa0	0.08282399
114	0x3d3bf3ef	0.04588693
115	0xbe28cfdf	-0.16485547
116	0x3db6f837	0.08934062
117	0xbe4f45fc	-0.2024154
118	0x3db418c1	0.08793784
119	0xbe0affb6	-0.13574108
120	0x3de06ff4	0.10958853
121	0x3d2a5f16	0.041594587
122	0x3e303c5c	0.17210525
123	0x3bf2ac01	0.0074057584
124	0xbddb4762	-0.107069746
125	0x3dd91a57	0.10600727
126	0x3de71aca	0.112844065
127	0x3ddaab65	0.10677222
128	0xbb0fef33	-0.0021962642
129	0x3dca836b	0.09888347
130	0xbe3cccd1	-0.18437506
131	0xbe57da85	-0.21079452
132	0x3a87fb5b	0.0010374592
133	0x3e0a91a7	0.13532124
134	0x3c53cd56	0.012927374
135	0xbd42ee3b	-0.047590476
136	0xbe3acea3	-0.18242888
137	0x3dfafbb9	0.122550435
138	0xbe48dc97	-0.19615398
139	0xbe021ad1	-0.12705542
140	0x3dca07e4	0.09864786
141	0xbd8b6440	-0.068062305
142	0xbe21ff0e	-0.15819952
143	0xbde85b32	-0.11345519
144	0x3dd03f7b	0.10168358
145	0xbe1c2c4d	-0.15251274
146	0x3bbbdf3f	0.0057334
147	0xbd63c88d	-0.055611182
148	0xbbfabfec	-0.0076522734
149	0x3db8c9e1	0.0902288
150	0x3ba25a10	0.004954584
151	0xbcefccaf	-0.029272405
152	0xbddc8ab9	-0.10768647
153	0x3c8a7b0c	0.016904376
154	0x3e3a4488	0.18190205
155	0x3d6f972e	0.058493786
156	0x3d98dfe4	0.07464579
157	0xbdb7b0af	-0.089692466
158	0xbd837bf7	-0.06420129
159	0xbdf25709	-0.11833007
160	0x3d0ff036	0.035141192
161	0xbd62ff71	-0.05541939
162	0xb86b382d	-5.6080684e-05
163	0xbe33ffbf	-0.17578028
164	0x3d6142ff	0.054995533
165	0xbaa4dd20	-0.0012578107
166	0x3dcc06a4	0.09962204
167	0xbacab189	-0.0015464287
168	0xbd979c14	-0.074028164
169	0x3dbf5e2a	0.09344132
170	0xbd93f872	-0.072251216
171	0x3cea86b4	0.028628685
172	0x3e45ccbe	0.19316384
173	0x3de378de	0.11107038
174	0x3d4de2e9	0.050265227
175	0x3d927e83	0.071530364
176	0x3e519c9d	0.204699
177	0xba886264	-0.0010405299
178	0x3e266ca7	0.16252385
179	0xbe177c5a	-0.1479353
180	0xbd300565	-0.042973895
181	0x3cf88f84	0.030341871
182	0xbe22c655	-0.1589597
183	0xbd103a73	-0.03521199
184	0x3c56bcd8	0.013106547
185	0x3b199903	0.002343715
186	0xbb4dc426	-0.003139743
187	0xba35b649	-0.00069317647
188	0xbbde5d25	-0.006786006
189	0x3e632ee5	0.22185858
190	0xbd7849be	-0.0606172
191	0x3e01377a	0.12618819
192	0x3cda505f	0.026649652
193	0x3dc454d9	0.09586496
194	0x3de99474	0.11405268
195	0xbd0230bd	-0.03178476
196	0xbd827356	-0.06369655
197	0xbdd81b06	-0.10552029
198	0xbd7ecfb6	-0.062209807
199	0xbd21b03c	-0.03947471
200	0xbc598de7	-0.013278461
201	0x3da15141	0.07876826
202	0x3db509b1	0.08839739
203	0xbd9f58d4	-0.077806145
204	0x3d8cabf0	0.06868732
205	0x3cd6e8c5	0.02623404
206	0xbc7176f0	-0.01473783
207	0x3dd18895	0.10231129
208	0xbe1cf5bf	-0.1532812
209	0xbd4f993e	-0.050683253
210	0x3e16d96f	0.14731382
211	0x3defc40e	0.11707316
212	0x3d8e965d	0.06962273
213	0x3cd66ece	0.026175883
214	0xbc92e339	-0.017930614
215	0x3e1d589c	0.15365833
216	0x3c21df49	0.0098798955
217	0x3ceec43e	0.02914631
218	0x3c9fce86	0.019507658
219	0x3e00b5a3	0.12569289
220	0x3dd4e5f1	0.1039542
221	0xbe068062	-0.13134912
222	0xbe2cc1a0	-0.16870737
223	0xbe3810f5	-0.17975219
224	0x3e258cd0	0.16166997
225	0xbe00726a	-0.12543646
226	0xbe37cf5d	-0.17950197
227	0x3d0ec3c9	0.034854684
228	0xbd74f40b	-0.05980305
229	0x3d19d9b4	0.037561134
230	0xbcd4bfa7	-0.025970293
231	0x3d6e5889	0.058189902
232	0xbe0fa74e	-0.14028665
233	0xbe391082	-0.18072703
234	0x3dbc54a2	0.0919583
235	0xbd7f32b0	-0.0623042
236	0x3d88a04c	0.06671199
237	0x3d9d13e7	0.07669812
238	0xbd0a1351	-0.033709828
239	0xbe13bf45	-0.14428432
240	0xba873d64	-0.0010317978
241	0xbe31abfc	-0.17350763
242	0x3dd3b289	0.10336787
243	0x3c4a9e52	0.012366848
244	0x3e0fefd6	0.14056334
245	0x3e330507	0.17482387
246	0x3d8b7b03	0.06810572
247	0x3d218d6b	0.039441507
248	0x3d318914	0.04334362
249	0xbdca45c8	-0.09876591
250	0x3e2a64af	0.1663997
251	0xbdc636b8	-0.096784055
252	0x3e051c11	0.12998988
253	0xbd724452	-0.059147187
254	0x3e0ee939	0.13956155
255	0x3dc5686f	0.0963906

fc2.weight f4 [128, 260]
0	0x3d8bcd0c	0.06826219
1	0x3c9e0f52	0.019294415
2	0x3dd5a1a2	0.1043122
3	0xbd9fb073	-0.07797327
4	0x3db9d0b6	0.090730116
5	0xbe167739	-0.14693917
6	0xbdb41cc9	-0.08794553
7	0x3d915662	0.07096554
8	0xbd26ff66	-0.04077091
9	0xbd209e13	-0.03921325
10	0xbcb199aa	-0.021679718
11	0x3ce8fec2	0.02844179
12	0x3d99b33d	0.0750489
13	0x3d9ade14	0.07561889
14	0xbca4fb15	-0.020139256
15	0xbb9cfdb7	-0.0047909874
16	0x3c2a45ad	0.010392589
17	0xbd4b245c	-0.049595222
18	0x3d70a241	0.058748487
19	0x3d9bac08	0.07601172
20	0x3d416eef	0.047224935
21	0xbc12f08f	-0.008968486
22	0x3cd1cf58	0.025611565
23	0xbc93f425	-0.018060753
24	0xbd0943dc	-0.03351198
25	0xbd02ef62	-0.031966574
26	0xbca6bb10	-0.02035287
27	0xbeac97c9	-0.33709553
28	0x3dffaf9b	0.12484666
29	0xbda5f917	-0.08104151
30	0x3d8dd19e	0.06924747
31	0x3d902ccb	0.070397936
32	0x3cfdc4ed	0.03097769
33	0xbc5f7acc	-0.013640117
34	0x3d43a981	0.047769073
35	0x3c906624	0.01762683
36	0xbd2dbc60	-0.042415977
37	0xbc376d09	-0.01119543
38	0x3d25be8f	0.040464934
39	0xbd8a453f	-0.06751489
40	0xbd988371	-0.074469455
41	0x3d809534	0.06278458
42	0xbd45f307	-0.048327472
43	0x3b3f3824	0.002917775
44	0x3adeb1ab	0.0016990205
45	0xbc783824	-0.015150104
46	0x3d26ce32	0.040723987
47	0xbd75b33c	-0.059985384
48	0xbdaca4f6	-0.08429901
49	0x3a643083	0.00087047386
50	0xbb85f9a5	-0.004088598
51	0x3d1a2e89	0.037642036
52	0x3dcac577	0.09900945
53	0xbe3aecb5	-0.18254359
54	0x3da133d5	0.07871214
55	0xbde1bdf1	-0.110225566
56	0xbb955857	-0.00455765
57	0x3dfafb48	0.12254959
58	0xbd637c8b	-0.055538695
59	0x3d7acdb5	0.061231334
60	0x3cf7f564	0.030268379
61	0x3dd14337	0.10217898
62	0x3d4f0a46	0.050546907
63	0x3d7c5852	0.061607666
64	0x3cd02052	0.025406037
65	0xbd83ee4e	-0.064419374
66	0xbc0ed91d	-0.008718756
67	0x3dc4224f	0.09576856
68	0xbdaa4347	-0.083136134
69	0xbda5642b	-0.08075746
70	0xbd7dd5b6	-0.06197139
71	0xbd98cc5e	-0.07460855
72	0x3c56c631	0.013108776
73	0x3dbfd92b	0.093675934
74	0xbda17aeb	-0.07884773
75	0xbcada5e7	-0.021197272
76	0xbd83912e	-0.06424175
77	0x3c8642dc	0.016389303
78	0x3d7d04c0	0.061772108
79	0xbd3a13e9	-0.045429144
80	0x3c0f614f	0.0087512275
81	0xbd6e7a09	-0.05822185
82	0xbce4e749	-0.027942317
83	0xba37a657	-0.00070056826
84	0x3c535994	0.012899775
85	0x3d8be127	0.06830054
86	0x3d955ece	0.07293473
87	0x3b889e33	0.0041692494
88	0xbd119b4a	-0.035548486
89	0xbdc28169	-0.09497339
90	0x3d0c6e26	0.034284733
91	0xbd34e58d	-0.04416423
92	0x3ce36e13	0.027762448
93	0xbdb68f76	-0.08914082
94	0x3c2583cd	0.010102225
95	0xbda99e09	-0.08282096
96	0x3da04d10	0.078271985
97	0xbdabca6b	-0.083882175
98	0x3cad4c51	0.021154555
99	0x3d91dba0	0.07121968
100	0xbd34fa98	-0.044184297
101	0xbe16b30c	-0.14716738
102	0x3c0c340f	0.008557334
103	0x3bc6378f	0.0060491036
104	0xbd877edc	-0.066159934
105	0x3df23fac	0.11828551
106	0x3d0e5d57	0.034756985
107	0x3da0d673	0.07853403
108	0x3db1db36	0.08684389
109	0x3cbecb8f	0.023290424
110	0xbd56891e	-0.05237686
111	0x3d7e7b95	0.062129576
112	0x3d5c29f0	0.053750932
113	0xbd834c9a	-0.06411095
114	0xbc7d4c07	-0.015460021
115	0xbd474f59	-0.048659656
116	0xbd989a52	-0.07451309
117	0xbd2a9a8d	-0.041651297
118	0x3c925e6d	0.017867291
119	0xbd25f749	-0.040519033
120	0xbb525438	-0.0032093655
121	0x3d0a0f43	0.03370596
122	0xbd10b15f	-0.035325404
123	0xbe2b309d	-0.16717763
124	0x3cf06a50	0.029347569
125	0x3c9dfe85	0.019286403
126	0x3ddaffc4	0.10693315
127	0xbd8b6ac3	-0.068074726
128	0x3d019ac1	0.031641725
129	0x3dfec515	0.12439934
130	0xbda9b58e	-0.08286582
131	0x3b162d87	0.002291532
132	0x3d9988b9	0.07496781
133	0xbd980ede	-0.07424711
134	0xbdb86dba	-0.09005304
135	0x3db4d449	0.08829553
136	0x3cab336b	0.020898541
137	0x3baffb06	0.0053705005
138	0xbd8aa872	-0.0677041
139	0x3d9f5c6c	0.077813
140	0xbda82da3	-0.082118295
141	0xbbad55b9	-0.00528976
142	0xbd2e26b0	-0.042517364
143	0xbc8572e5	-0.016290138
144	0x3d893643	0.06699803
145	0xbd6fa36c	-0.05850546
146	0xbce02dec	-0.027365647
147	0x3d99704d	0.07492123
148	0xbc4a08ae	-0.012331171
149	0xbd31a732	-0.04337234
150	0xbcfa118d	-0.030525947
151	0x3d43dc50	0.04781753
152	0xbd3ba847	-0.04581478
153	0x3d8da61a	0.06916447
154	0x3d554d93	0.052075934
155	0x3d36725c	0.044542655
156	0xbdabd90e	-0.08391009
157	0x3cb7978e	0.022411134
158	0xbc9492d2	-0.018136416
159	0x3d8fd6d3	0.07023396
160	0x3b10e4f3	0.002210912
161	0x3db88d39	0.09011311
162	0xbdac0781	-0.08399869
163	0xbd4cf372	-0.050036855
164	0x3d9259b1	0.071460135
165	0xbd122e21	-0.035688523
166	0x3d868d5f	0.06569933
167	0x3dc17850	0.09446776
168	0x3cc24944	0.023716576
169	0xbc707bf3	-0.014677989
170	0x3d8b20db	0.06793376
171	0xbd9c45e0	-0.07630515
172	0x3bdee396	0.0068020327
173	0xbd3f5de7	-0.04672041
174	0x3e05d21b	0.1306843
175	0xbd0a9f4a	-0.033843316
176	0xbd6b3a18	-0.05742845
177	0xbcf3b74c	-0.029750489
178	0x3caa55fc	0.020792954
179	0xbcaa6481	-0.020799877
180	0xbd86ee46	-0.06588416
181	0x3c5cfada	0.013487542
182	0xbd3da297	-0.046297636
183	0x3db0e1c2	0.0863681
184	0xbd716185	-0.058930892
185	0xbd55e513	-0.052220415
186	0xbcf6ba58	-0.030118152
187	0xbd203e4e	-0.03912192
188	0x3d8b5c19	0.068046756
189	0x3d9292d4	0.071569115
190	0xbc47590c	-0.0121672265
191	0xbcb3ff56	-0.02197234
192	0xbd9fab04	-0.077962905
193	0x3dcfc33b	0.10144659
194	0xbc8b6929	-0.017017918
195	0x3cf986c8	0.030459777
196	0x3d87d118	0.06631678
197	0xbdc995d9	-0.09843034
198	0x3dbfc436	0.09363596
199	0xbda4142f	-0.08011662
200	0xbd257132	-0.040391155
201	0x3dab57a4	0.083663255
202	0xbabb42c7	-0.0014286869
203	0x3a9cdaaf	0.0011967028
204	0xbd44e695	-0.048071463
205	0x3cf2e5e3	0.029650634
206	0xb9821bd1	-0.00024816257
207	0xbd657f92	-0.056029864
208	0x3a2428eb	0.0006262201
209	0xbd526ae0	-0.051371455
210	0x3d69651f	0.056981202
211	0x3c4aba3a	0.012373501
212	0x3d5fc423	0.05463041
213	0xbcb47dc6	-0.02203263
214	0x3d4526f8	0.048132867
215	0xbd8285cb	-0.06373175
216	0x3c5d80ac	0.013519447
217	0xbb9a78a4	-0.0047140885
218	0xbd53f498	-0.051746935
219	0xbb81898d	-0.003953165
220	0x3c241d39	0.010016733
221	0x3d2225a9	0.039586697
222	0xbdc194fe	-0.09452246
223	0xbcaa5b2a	-0.020795424
224	0x3d01ef45	0.031722326
225	0xbcceed2d	-0.025259579
226	0xbd9d8339	-0.07691044
227	0x3d957ada	0.07298823
228	0xbd8eda18	-0.06975192
229	0x3d01a540	0.031651735
230	0x3d238d42	0.039929636
231	0x3d87dc38	0.066338
232	0xbd7bf1c1	-0.06150985
233	0xbe02d50e	-0.12776586
234	0xbdb900cd	-0.09033356
235	0x3a3f3794	0.00072943536
236	0x3d24dba7	0.04024854
237	0xbc078062	-0.008270355
238	0xbe07219a	-0.13196412
239	0x3d493c06	0.04912951
240	0xbd3887a6	-0.04505124
241	0xbd1f5fef	-0.03890985
242	0xbd36255f	-0.044469234
243	0xbc766cfc	-0.015040632
244	0x3d68165d	0.056661952
245	0x3d00c4c2	0.031437643
246	0xbd43a0f7	-0.04776093
247	0xbcd4ca8f	-0.025975494
248	0xbd4f5515	-0.05061825
249	0x3dde7f47	0.1086412
250	0xbc8660d4	-0.016403593
251	0xbd2cab30	-0.042155445
252	0x3d845dcb	0.06463202
253	0xbde42cff	-0.11141395
254	0x3cc9f5ff	0.024653433
255	0xbdec762c	-0.11545977

fc2.bias f4 [128]
0	0x3cad6767	0.02116747
1	0x3b3d895f	0.002892099
2	0x3d908222	0.07056071
3	0xbd4bc670	-0.04974979
4	0x3d5ed19b	0.054399114
5	0x3d4a5312	0.04939563
6	0xbdc2af38	-0.095060766
7	0x3cb84042	0.022491578
8	0x3d98c8a4	0.07460144
9	0x3c6aeddf	0.014338939
10	0xbcbc4af5	-0.022984961
11	0x3c94a36f	0.018144337
12	0x3db2fce1	0.08739639
13	0xbdaf4d80	-0.08559704
14	0xbcc367a6	-0.023853134
15	0xbc2838e2	-0.010267468
16	0x3db79324	0.08963612
17	0x3bd0aa57	0.0063679623
18	0x3d1f052c	0.03882329
19	0x3d12d8a5	0.03585114
20	0x3db3ac80	0.08773136
21	0x3dc863a1	0.09784628
22	0xbd559150	-0.052140534
23	0xbd552520	-0.05203736
24	0x3e2b0b9a	0.16703644
25	0x3b039ef5	0.002008376
26	0x3db228a1	0.086991556
27	0xbd8022a0	-0.06256604
28	0x3dea774d	0.11448536
29	0xbd099281	-0.033586983
30	0x3d19aac5	0.037516374
31	0x3cae07ed	0.021244014
32	0x3d339a5b	0.043848377
33	0xbd6c7b5f	-0.057734843
34	0xbc2b0039	-0.010437065
35	0xbd8908ed	-0.066911556
36	0x3dbc3066	0.09188919
37	0x3d3d7c39	0.046261046
38	0x3ce819ea	0.02833267
39	0x3c024959	0.007952058
40	0x3cf994a0	0.030466378
41	0xbc017090	-0.007900372
42	0x3d6681bf	0.05627608
43	0xbdb837fc	-0.08995053
44	0xbd42a639	-0.047521804
45	0x3dbb2aba	0.09139009
46	0x3d572f7e	0.052535526
47	0xbc74975f	-0.014928668
48	0x3d307a59	0.04308543
49	0x3b1b52ec	0.0023700548
50	0xbd900ce2	-0.07033707
51	0xbda63783	-0.08116057
52	0x3d1a03e0	0.03760135
53	0xbce45c2b	-0.02787598
54	0xbc11d0bf	-0.008899867
55	0xbd4e0e68	-0.050306708
56	0x3ded5eeb	0.1159037
57	0xbbba0e20	-0.0056779534
58	0x3d481c0e	0.04885488
59	0xbcfc05bd	-0.030764455
60	0xbda21774	-0.079146296
61	0x3d1f2fa1	0.03886378
62	0x3e035026	0.12823543
63	0x3d9a75fd	0.07542036
64	0xbc099e8f	-0.00839962
65	0x3d79f656	0.06102594
66	0x3da13c89	0.07872874
67	0x3cf358fe	0.02970552
68	0xbce961cc	-0.028489016
69	0x3c09fa01	0.008421422
70	0x3c7f2013	0.015571612
71	0xbcfeb08a	-0.03109004
72	0x3c35143e	0.011052189
73	0x3cfa05c2	0.030520324
74	0x3d5a9911	0.05336863
75	0xbc5c6c52	-0.01345356
76	0x3ca183e0	0.019716203
77	0xbb4e7dc1	-0.003150806
78	0x3bb2fc5f	0.005462214
79	0xbc9cb59f	-0.019129572
80	0x3dd92c90	0.10604203
81	0x3b92be97	0.0044782865
82	0xbd63d801	-0.05562592
83	0xbd946348	-0.07245499
84	0xbd9ce674	-0.07661143
85	0x3dbb366a	0.09141238
86	0xbc6411ff	-0.013920306
87	0x3c4b784c	0.012418818
88	0x3dc3ebf1	0.095664866
89	0x3dd4e140	0.103945255
90	0x3dfc1aae	0.12309776
91	0x3d92587d	0.07145784
92	0xbd11226f	-0.03543323
93	0x3de0b414	0.10971847
94	0x3d3ac14f	0.04559451
95	0x3c8605db	0.016360214
96	0xbdb5f385	-0.08884338
97	0xbd34276c	-0.043982908
98	0x3e0dc1c2	0.13843444
99	0xbd887d88	-0.06664568
100	0xbcf4b1bd	-0.029869908
101	0x3d72be42	0.059263475
102	0xbd054bda	-0.03254304
103	0x3d85449a	0.06507225
104	0xbd8848fb	-0.06654545
105	0x3d95b314	0.07309547
106	0x3d04d284	0.032427326
107	0xbd89108f	-0.066926114
108	0x3d50e375	0.05099817
109	0xbc114f27	-0.008868969
110	0xbd123139	-0.035691474
111	0x3c9cbd6d	0.019133294
112	0xbcade345	-0.021226535
113	0xbd5d04c0	-0.053959608
114	0x3c49b5a8	0.012311377
115	0x3d1ae7da	0.037818767
116	0x3c00a99a	0.007852936
117	0x3cc72146	0.024307858
118	0x3d227561	0.039662722
119	0xbd61e2c2	-0.055147894
120	0xbce0a3b3	-0.027421808
121	0x3d70f881	0.05883074
122	0x3dcb4cd2	0.09926762
123	0x3d130c2a	0.035900272
124	0x3ced633b	0.02897798
125	0xbd8d499e	-0.06898807
126	0xbd871b07	-0.06596952
127	0x3ccbab3e	0.024861928

fc3.weight f4 [1, 128]
0	0x3d8ba0ab	0.06817754
1	0xbda9ed36	-0.082971975
2	0x3d5a80d8	0.05334553
3	0xbe444134	-0.19165498
4	0x3e1d6160	0.15369177
5	0x3dc1d172	0.09463777
6	0xbde4c72d	-0.11170802
7	0x3d3a0e70	0.045423925
8	0x3d6659d5	0.056238014
9	0xbd9ab853	-0.07554688
10	0xbd23d18e	-0.03999477
11	0xbe024f7b	-0.12725632
12	0x3d64cd8c	0.055860087
13	0xbe472f77	-0.194517
14	0x3dd35531	0.10318983
15	0x3de06a17	0.10957735
16	0x3d7e4ce7	0.06208506
17	0x3d81d387	0.06339174
18	0x3d2d730c	0.042346045
19	0x3d99d803	0.07511904
20	0x3d4484b6	0.047978126
21	0x3e6e8c2e	0.23295662
22	0xbd903cf3	-0.07042875
23	0xbde29734	-0.11063996
24	0x3d8df2a5	0.069310464
25	0xbe18e479	-0.14930905
26	0x3d7f86cb	0.062384408
27	0xbe3f0fd9	-0.18658389
28	0x3e7fa403	0.2496491
29	0xbe07d793	-0.13265829
30	0x3d596543	0.053075086
31	0xbded314a	-0.11581667
32	0x3d4aaacc	0.04947929
33	0xbe00fa45	-0.1259547
34	0xbd5a3feb	-0.053283613
35	0xbda76ecb	-0.08175429
36	0x3d095050	0.033523858
37	0x3dcc66e5	0.09980563
38	0xbddafb97	-0.10692518
39	0xbdf351aa	-0.118808106
40	0x3d963701	0.0733471
41	0xbe030c3e	-0.12797639
42	0x3dbb283d	0.09138534
43	0xbdd28f96	-0.10281293
44	0xbdabbc0c	-0.083854765
45	0x3e20a4aa	0.15687814
46	0x3e05c0d3	0.13061838
47	0xbd87c352	-0.06629051
48	0x3e6e1ad8	0.23252428
49	0xbd7a7e0c	-0.061155364
50	0xbdbe5858	-0.09294194
51	0xbe7fe220	-0.24988604
52	0x3d743412	0.05961997
53	0xbdcc759f	-0.09983372
54	0xbdd48c89	-0.103783675
55	0xbe055e4d	-0.13024254
56	0x3d670702	0.056403168
57	0xbe5bc43e	-0.21461579
58	0x3d843326	0.06455068
59	0xbdf9ed20	-0.12203431
60	0xbe50be08	-0.20384991
61	0x3d7afd55	0.061276753
62	0x3e0282b1	0.12745167
63	0x3d9c3884	0.07627967
64	0xbd87da7a	-0.06633468
65	0x3d8182e5	0.06323794
66	0x3daa53a5	0.08316735
67	0x3d8b2c6d	0.06795583
68	0xbd5b5c8c	-0.053555056
69	0xbdf829c0	-0.12117338
70	0xbdda652f	-0.106638305
71	0xbe77a01d	-0.24182172
72	0xbe2a5d3c	-0.16637129
73	0x3d2bf400	0.041980743
74	0x3d913846	0.070908114
75	0xbe611247	-0.21979629
76	0x3da7bc82	0.08190252
77	0x3d92fe6d	0.07177434
78	0x3da58fce	0.08084069
79	0x3db8ff1f	0.090330355
80	0x3d2cb1d4	0.042161778
81	0x3e076f9f	0.13226174
82	0xbe21c996	-0.15799555
83	0xbe1d2d6a	-0.15349355
84	0xbe23e7c7	-0.16006385
85	0x3d1f0a13	0.038827967
86	0xbd9de0f3	-0.07708921
87	0xbdfa6025	-0.12225369
88	0x3d8779e2	0.06615044
89	0x3d4f3410	0.05058676
90	0x3dc273b9	0.094947286
91	0x3d408cc8	0.04700926
92	0xbd6720c8	-0.056427747
93	0x3e0995b8	0.1343602
94	0x3d53c171	0.051698152
95	0x3d5b8fee	0.05360406
96	0xbd7b2b91	-0.061320845
97	0xbd74217a	-0.05960224
98	0x3d84701e	0.06466697
99	0xbe3bdafe	-0.18345258
100	0x3da29b0c	0.07939729
101	0x3d996705	0.074903525
102	0xbe3868c2	-0.18008712
103	0x3d5d6ed0	0.054060757
104	0xbe22e843	-0.15908913
105	0x3d8e396c	0.06944546
106	0x3ddd7a59	0.108143516
107	0xbe227fdf	-0.15869091
108	0x3e15b3bc	0.14619344
109	0xbe5c23e3	-0.21498065
110	0xbe59c63c	-0.21267027
111	0xbe7063d0	-0.23475575
112	0xbebb87c5	-0.3662702
113	0xbd9dd703	-0.07707026
114	0xbde9ce56	-0.114163086
115	0x3d8b6a66	0.06807403
116	0xbe30c623	-0.17263083
117	0x3daa8524	0.08326176
118	0x3d6df05f	0.058090564
119	0xbd7be3b0	-0.061496437
120	0x3d941200	0.07229996
121	0x3dabf352	0.08396019
122	0x3d831c1c	0.06401846
123	0x3d4cba96	0.04998263
124	0x3d703e41	0.05865312
125	0x3da68afb	0.08131977
126	0xbdcc3a80	-0.099720955
127	0xbd55dfea	-0.052215494
